…
2026-07-08 02:06:50,279 - server.FL_Server - INFO - <socket.socket fd=2044, family=2, type=1, proto=0, laddr=('192.168.137.1', 52000), raddr=('192.168.137.104', 52001)>
2026-07-08 02:06:50,280 - server.FL_Server - INFO - Waiting Incoming Connections.
2026-07-08 02:09:41,661 - server.FL_Server - INFO - Got connection from 192.168.137.168:52002
2026-07-08 02:09:41,662 - server.FL_Server - INFO - <socket.socket fd=1936, family=2, type=1, proto=0, laddr=('192.168.137.1', 52000), raddr=('192.168.137.168', 52002)>
2026-07-08 02:09:41,753 - server.FL_Server - INFO - VGG(
  (pps): ModuleList(
    (0): Sequential(
      (0): Conv2d(3, 64, kernel_size=(3, 3), stride=(1, 1), padding=(1, 1), bias=False)
      (1): BatchNorm2d(64, eps=1e-05, momentum=0.1, affine=True, bias=True, track_running_stats=False)
      (2): ReLU(inplace=True)
      (3): MaxPool2d(kernel_size=2, stride=2, padding=0, dilation=1, ceil_mode=False)
    )
    (1): Sequential(
      (0): Conv2d(64, 128, kernel_size=(3, 3), stride=(1, 1), padding=(1, 1), bias=False)
      (1): BatchNorm2d(128, eps=1e-05, momentum=0.1, affine=True, bias=True, track_running_stats=False)
      (2): ReLU(inplace=True)
      (3): MaxPool2d(kernel_size=2, stride=2, padding=0, dilation=1, ceil_mode=False)
    )
    (2): Sequential(
      (0): Conv2d(128, 256, kernel_size=(3, 3), stride=(1, 1), padding=(1, 1), bias=False)
      (1): BatchNorm2d(256, eps=1e-05, momentum=0.1, affine=True, bias=True, track_running_stats=False)
      (2): ReLU(inplace=True)
      (3): Conv2d(256, 256, kernel_size=(3, 3), stride=(1, 1), padding=(1, 1), bias=False)
      (4): BatchNorm2d(256, eps=1e-05, momentum=0.1, affine=True, bias=True, track_running_stats=False)
      (5): ReLU(inplace=True)
      (6): MaxPool2d(kernel_size=2, stride=2, padding=0, dilation=1, ceil_mode=False)
    )
    (3): Sequential(
      (0): Conv2d(256, 512, kernel_size=(3, 3), stride=(1, 1), padding=(1, 1), bias=False)
      (1): BatchNorm2d(512, eps=1e-05, momentum=0.1, affine=True, bias=True, track_running_stats=False)
      (2): ReLU(inplace=True)
      (3): Conv2d(512, 512, kernel_size=(3, 3), stride=(1, 1), padding=(1, 1), bias=False)
      (4): BatchNorm2d(512, eps=1e-05, momentum=0.1, affine=True, bias=True, track_running_stats=False)
      (5): ReLU(inplace=True)
      (6): MaxPool2d(kernel_size=2, stride=2, padding=0, dilation=1, ceil_mode=False)
    )
    (4): Sequential(
      (0): Conv2d(512, 512, kernel_size=(3, 3), stride=(1, 1), padding=(1, 1), bias=False)
      (1): BatchNorm2d(512, eps=1e-05, momentum=0.1, affine=True, bias=True, track_running_stats=False)
      (2): ReLU(inplace=True)
      (3): Conv2d(512, 512, kernel_size=(3, 3), stride=(1, 1), padding=(1, 1), bias=False)
      (4): BatchNorm2d(512, eps=1e-05, momentum=0.1, affine=True, bias=True, track_running_stats=False)
      (5): ReLU(inplace=True)
      (6): MaxPool2d(kernel_size=2, stride=2, padding=0, dilation=1, ceil_mode=False)
    )
    (5): Sequential(
      (0): Flatten()
      (1): Linear(in_features=512, out_features=512, bias=False)
      (2): ReLU(inplace=True)
      (3): Linear(in_features=512, out_features=512, bias=False)
      (4): ReLU(inplace=True)
      (5): Linear(in_features=512, out_features=10, bias=False)
    )
  )
)
100%|█████████████████████████████████████████████████████████████████████████████████████| 100/100 [00:24<00:00,  4.01it/s]
2026-07-08 02:10:07,324 - __main__ - INFO - Global loss: 0.023076660656929017, Global Acc: 11.09
2026-07-08 02:10:07,326 - __main__ - INFO - =====================================================================================================>
…
