…
2026-07-08 03:06:05,228 - server.FL_Server - INFO - <socket.socket fd=2336, family=2, type=1, proto=0, laddr=('192.168.137.1', 52000), raddr=('192.168.137.104', 52001)>
2026-07-08 03:06:05,229 - server.FL_Server - INFO - Waiting Incoming Connections.
2026-07-08 03:06:08,045 - server.FL_Server - INFO - Got connection from 192.168.137.168:52002
2026-07-08 03:06:08,045 - server.FL_Server - INFO - <socket.socket fd=1536, family=2, type=1, proto=0, laddr=('192.168.137.1', 52000), raddr=('192.168.137.168', 52002)>
2026-07-08 03:06:08,062 - server.FL_Server - INFO - ResNet(
  (pps): ModuleList(
    (0): Sequential(
      (0): Conv2d(3, 64, kernel_size=(3, 3), stride=(1, 1), padding=(1, 1), bias=False)
      (1): BatchNorm2d(64, eps=1e-05, momentum=0.1, affine=True, bias=True, track_running_stats=False)
      (2): ReLU(inplace=True)
      (3): MaxPool2d(kernel_size=2, stride=2, padding=0, dilation=1, ceil_mode=False)
    )
    (1): Sequential(
      (0): Conv2d(64, 64, kernel_size=(3, 3), stride=(1, 1), padding=(1, 1), bias=False)
      (1): BatchNorm2d(64, eps=1e-05, momentum=0.1, affine=True, bias=True, track_running_stats=False)
      (2): ReLU(inplace=True)
      (3): MaxPool2d(kernel_size=2, stride=2, padding=0, dilation=1, ceil_mode=False)
    )
    (2): Sequential(
      (0): BasicBlock(
        (residual_function): Sequential(
          (0): Conv2d(64, 64, kernel_size=(3, 3), stride=(2, 2), padding=(1, 1), bias=False)
          (1): BatchNorm2d(64, eps=1e-05, momentum=0.1, affine=True, bias=True, track_running_stats=False)
          (2): ReLU(inplace=True)
          (3): Conv2d(64, 64, kernel_size=(3, 3), stride=(1, 1), padding=(1, 1), bias=False)
          (4): BatchNorm2d(64, eps=1e-05, momentum=0.1, affine=True, bias=True, track_running_stats=False)
        )
        (shortcut): Sequential(
          (0): Conv2d(64, 64, kernel_size=(1, 1), stride=(2, 2), bias=False)
          (1): BatchNorm2d(64, eps=1e-05, momentum=0.1, affine=True, bias=True, track_running_stats=False)
        )
      )
    )
    (3): Sequential(
      (0): BasicBlock(
        (residual_function): Sequential(
          (0): Conv2d(64, 128, kernel_size=(3, 3), stride=(2, 2), padding=(1, 1), bias=False)
          (1): BatchNorm2d(128, eps=1e-05, momentum=0.1, affine=True, bias=True, track_running_stats=False)
          (2): ReLU(inplace=True)
          (3): Conv2d(128, 128, kernel_size=(3, 3), stride=(1, 1), padding=(1, 1), bias=False)
          (4): BatchNorm2d(128, eps=1e-05, momentum=0.1, affine=True, bias=True, track_running_stats=False)
        )
        (shortcut): Sequential(
          (0): Conv2d(64, 128, kernel_size=(1, 1), stride=(2, 2), bias=False)
          (1): BatchNorm2d(128, eps=1e-05, momentum=0.1, affine=True, bias=True, track_running_stats=False)
        )
      )
    )
    (4): Sequential(
      (0): BasicBlock(
        (residual_function): Sequential(
          (0): Conv2d(128, 256, kernel_size=(3, 3), stride=(2, 2), padding=(1, 1), bias=False)
          (1): BatchNorm2d(256, eps=1e-05, momentum=0.1, affine=True, bias=True, track_running_stats=False)
          (2): ReLU(inplace=True)
          (3): Conv2d(256, 256, kernel_size=(3, 3), stride=(1, 1), padding=(1, 1), bias=False)
          (4): BatchNorm2d(256, eps=1e-05, momentum=0.1, affine=True, bias=True, track_running_stats=False)
        )
        (shortcut): Sequential(
          (0): Conv2d(128, 256, kernel_size=(1, 1), stride=(2, 2), bias=False)
          (1): BatchNorm2d(256, eps=1e-05, momentum=0.1, affine=True, bias=True, track_running_stats=False)
        )
      )
    )
    (5): Sequential(
      (0): Flatten()
      (1): Linear(in_features=256, out_features=10, bias=False)
    )
  )
)
100%|█████████████████████████████████████████████████████████████████████████████████████| 100/100 [00:18<00:00,  5.31it/s]
2026-07-08 03:06:35,201 - __main__ - INFO - Global loss: 0.024470809602737426, Global Acc: 9.45
2026-07-08 03:06:35,201 - __main__ - INFO - =====================================================================================================>
…
